…
-forest.\n- These patches serve as training data for our model.\n\n#### 4. **Data Augmentation**:\n- To increase the amount of training data and make the model more robust, we use data augmentation techniques, such as rotating and flipping images.\n\n#### 5. **Model Definition**:\nWe use a convolutional neural network (CNN) model with the following architecture:\n\\```\n_________________________________________________________________\nLayer (type)                 Output Shape              Param #\n=================================================================\nConv2D (Conv2D)              (None, 48, 48, 32)        320\n_________________________________________________________________\nMaxPooling2D (MaxPooling2D)  (None, 24, 24, 32)        0\n_________________________________________________________________\nConv2D (Conv2D)              (None, 22, 22, 64)        18496\n_________________________________________________________________\nMaxPooling2D (MaxPooling2D)  (None, 11, 11, 64)        0\n_________________________________________________________________\nFlatten (Flatten)            (None, 7744)              0\n_________________________________________________________________\nDense (Dense)                (None, 64)                495680\n_________________________________________________________________\nDense (Dense)                (None, 1)                 65\n=================================================================\n\\```\n\n\n#### 6. **Model training**:\n- We compile the model using the 'adam' optimizer and the 'binary_crossentropy' loss function.\n- The model is trained on the training data for 10 epochs.\n- We also validate the model using the evaluation data.\n\n#### 7. **Model evaluation**:\n- After training, we evaluate the model's per
…
